…
    "text": "Model Using Only Title\n\nOur first model will only use the title of the article to predict whether it is fake or real.\nThe model is created below and its summary is outputted.\n\n\n# create model using only title as a predictor and output its summary\nmodel_title = get_model(\"title\")\nmodel_title.summary()\n\nModel: \"functional_1\"\n\n\n\n┏━━━━━━━━━━━━━━━━━━━━━━━━━━━━━━━━━┳━━━━━━━━━━━━━━━━━━━━━━━━┳━━━━━━━━━━━━━━━┓\n┃ Layer (type)                    ┃ Output Shape           ┃       Param # ┃\n┡━━━━━━━━━━━━━━━━━━━━━━━━━━━━━━━━━╇━━━━━━━━━━━━━━━━━━━━━━━━╇━━━━━━━━━━━━━━━┩\n│ title (InputLayer)              │ (None, 1)              │             0 │\n├─────────────────────────────────┼────────────────────────┼───────────────┤\n│ text_vectorization              │ (None, 500)            │             0 │\n│ (TextVectorization)             │                        │               │\n├─────────────────────────────────┼────────────────────────┼───────────────┤\n│ embedding (Embedding)           │ (None, 500, 3)         │         6,000 │\n├─────────────────────────────────┼────────────────────────┼───────────────┤\n│ dropout (Dropout)               │ (None, 500, 3)         │             0 │\n├─────────────────────────────────┼────────────────────────┼───────────────┤\n│ global_average_pooling1d        │ (None, 3)              │             0 │\n│ (GlobalAveragePooling1D)        │                        │               │\n├─────────────────────────────────┼────────────────────────┼───────────────┤\n│ dropout_1 (Dropout)             │ (None, 3)              │             0 │\n├─────────────────────────────────┼────────────────────────┼───────────────┤\n│ dense (Dense)                   │ (None, 32)             │           128 │\n├─────────────────────────────────┼────────────────────────┼───────────────┤\n│ dense_1 (Dense)                 │ (None, 32)             │         1,056 │\n├─────────────────────────────────┼────────────────────────┼───────────────┤\n│ fake (Dense)                    │ (None, 2)              │            66 │\n└─────────────────────────────────┴────────────────────────┴───────────────┘\n\n\n\n Total params: 7,250 (28.32 KB)\n\n\n\n Trainable params: 7,250 (28.32 KB)\n\n\n\n Non-trainable params: 0 (0.00 B)\n\n\n\n\nWe will now display the model in an easy-to read manner, done below.\n\n\n# plot the model layers in a flow chart format\nutils.plot_model(model_title, \"model_title.png\",\n             
…
    "text": "Model Using Only Text\n\nOur second model will only use the text of the article to predict whether it is fake or real.\nThe model is created below and its summary is outputted.\n\n\n# create model using only title as a predictor and output its summary\nmodel_text = get_model(\"text\")\nmodel_text.summary()\n\nModel: \"functional_3\"\n\n\n\n┏━━━━━━━━━━━━━━━━━━━━━━━━━━━━━━━━━━━━━━┳━━━━━━━━━━━━━━━━━━━━━━━━━━━━━┳━━━━━━━━━━━━━━━━━┓\n┃ Layer (type)                         ┃ Output Shape                ┃         Param # ┃\n┡━━━━━━━━━━━━━━━━━━━━━━━━━━━━━━━━━━━━━━╇━━━━━━━━━━━━━━━━━━━━━━━━━━━━━╇━━━━━━━━━━━━━━━━━┩\n│ text (InputLayer)                    │ (None, 1)                   │               0 │\n├──────────────────────────────────────┼─────────────────────────────┼─────────────────┤\n│ text_vectorization                   │ (None, 500)                 │               0 │\n│ (TextVectorization)                  │                             │                 │\n├──────────────────────────────────────┼─────────────────────────────┼─────────────────┤\n│ embedding (Embedding)                │ (None, 500, 3)              │           6,000 │\n├──────────────────────────────────────┼─────────────────────────────┼─────────────────┤\n│ dropout_2 (Dropout)                  │ (None, 500, 3)              │               0 │\n├──────────────────────────────────────┼─────────────────────────────┼─────────────────┤\n│ global_average_pooling1d_1           │ (None, 3)                   │               0 │\n│ (GlobalAveragePooling1D)             │                             │                 │\n├──────────────────────────────────────┼─────────────────────────────┼─────────────────┤\n│ dropout_3 (Dropout)                  │ (None, 3)                   │               0 │\n├──────────────────────────────────────┼─────────────────────────────┼─────────────────┤\n│ dense_2 (Dense)                      │ (None, 32)                  │             128 │\n├──────────────────────────────────────┼─────────────────────────────┼─────────────────┤\n│ dense_3 (Dense)                      │ (None, 32)                  │           1,056 │\n├──────────────────────────────────────┼─────────────────────────────┼─────────────────┤\n│ fake (Dense)                         │ (None, 2)                   │              66 │\n└──────────────────────────────────────┴─────────────────────────────┴─────────────────┘\n\n\n\n Total params: 7,250 (28.32 KB)\n\n\n\n Trainable params: 7,250 (28.32 KB)\n\n\n\n Non-trainable params: 0 (0.00 B)\n\n\n\n\nWe will now display the model in an easy-to-read manner, done below.\n\n\n# plot the model layers in a flow chart format\nutils.plot_model(model_text, \"model_text.png\",\n   
…
    "text": "Model Using Both Title and Text\n\nOur third and final model will use both the title and the text of an article to predict whether it is fake or real.\nThe model is created below and its summary is outputted.\n\n\n# create model using title and text as predictors and output its summary\nmodel_both = get_model(\"both\")\nmodel_both.summary()\n\nModel: \"functional_5\"\n\n\n\n┏━━━━━━━━━━━━━━━━━━━━━┳━━━━━━━━━━━━━━━━━━━┳━━━━━━━━━━━━┳━━━━━━━━━━━━━━━━━━━┓\n┃ Layer (type)        ┃ Output Shape      ┃    Param # ┃ Connected to      ┃\n┡━━━━━━━━━━━━━━━━━━━━━╇━━━━━━━━━━━━━━━━━━━╇━━━━━━━━━━━━╇━━━━━━━━━━━━━━━━━━━┩\n│ title (InputLayer)  │ (None, 1)         │          0 │ -                 │\n├─────────────────────┼───────────────────┼────────────┼───────────────────┤\n│ text (InputLayer)   │ (None, 1)         │          0 │ -                 │\n├─────────────────────┼───────────────────┼────────────┼───────────────────┤\n│ text_vectorization  │ (None, 500)       │          0 │ title[0][0],      │\n│ (TextVectorization) │                   │            │ text[0][0]        │\n├─────────────────────┼───────────────────┼────────────┼───────────────────┤\n│ embedding           │ (None, 500, 3)    │      6,000 │ text_vectorizati… │\n│ (Embedding)         │                   │            │ text_vectorizati… │\n├─────────────────────┼───────────────────┼────────────┼───────────────────┤\n│ dropout_6 (Dropout) │ (None, 500, 3)    │          0 │ embedding[3][0]   │\n├─────────────────────┼───────────────────┼────────────┼───────────────────┤\n│ dropout_8 (Dropout) │ (None, 500, 3)    │          0 │ embedding[4][0]   │\n├─────────────────────┼───────────────────┼────────────┼───────────────────┤\n│ global_average_poo… │ (None, 3)         │          0 │ dropout_6[0][0]   │\n│ (GlobalAveragePool… │                   │            │                   │\n├─────────────────────┼───────────────────┼────────────┼───────────────────┤\n│ global_average_poo… │ (None, 3)         │          0 │ dropout_8[0][0]   │\n│ (GlobalAveragePool… │                   │            │                   │\n├─────────────────────┼───────────────────┼────────────┼───────────────────┤\n│ dropout_7 (Dropout) │ (None, 3)         │          0 │ global_average_p… │\n├─────────────────────┼───────────────────┼────────────┼───────────────────┤\n│ dropout_9 (Dropout) │ (None, 3)         │          0 │ global_average_p… │\n├─────────────────────┼───────────────────┼────────────┼───────────────────┤\n│ dense_5 (Dense)     │ (None, 32)        │        128 │ dropout_7[0][0]   │\n├─────────────────────┼───────────────────┼────────────┼───────────────────┤\n│ dense_6 (Dense)     │ (None, 32)        │        128 │ dropout_9[0][0]   │\n├─────────────────────┼───────────────────┼────────────┼───────────────────┤\n│ concatenate_1       │ (None, 64)        │          0 │ dense_5[0][0],    │\n│ (Concatenate)       │                   │            │ dense_6[0][0]     │\n├─────────────────────┼───────────────────┼────────────┼───────────────────┤\n│ dense_7 (Dense)     │ (None, 32)        │      2,080 │ concatenate_1[0]… │\n├─────────────────────┼───────────────────┼────────────┼───────────────────┤\n│ fake (Dense)        │ (None, 2)         │         66 │ dense_7[0][0]     │\n└─────────────────────┴───────────────────┴────────────┴───────────────────┘\n\n\n\n Total params: 8,402 (32.82 KB)\n\n\n\n Trainable params: 8,402 (32.82 KB)\n\n\n\n Non-trainable params: 0 (0.00 B)\n\n\n\n\nWe will now display the model in an easy-to-read manner, done below.\n\n\n# plot the model layers in a flow chart format\nutils.plot_model(model_both, \"model_both.png
…
